checkpoint.pth (torch_old, 28403 bytes, 6 tensors)

fc1.weight f4 [64, 37]
000000 19 a4 06 3d e6 cd 03 3d 3c 0f 2c be da b3 9c bd
       0.03287134 0.032178782 -0.16802686 -0.076514915
000010 b7 2b 70 3c 1f 0b 65 3e 76 fa 95 bd f3 dd 08 3c
       0.01465886 0.22367524 -0.07323162 0.008353698
000020 05 23 7b be 2a ee 0b bf 8b 0e 85 bd c5 66 8a bd
       -0.24525078 -0.54660285 -0.064969145 -0.06757883
000030 28 42 c7 bd 57 5a 9f bd 0b b4 d2 bd d2 d7 43 3d
       -0.09729415 -0.07780903 -0.10288247 0.047813244
000040 a5 fd 80 bb 7f e9 68 3d ce a2 f5 ba 42 65 b7 3b
       -0.003936487 0.056863304 -0.0018740536 0.0055967877
000050 35 00 ba 3d 76 74 06 3e 0c da b6 bc 22 2e c2 3d
       0.09082071 0.13130364 -0.02232077 0.094814554
000060 12 42 3e bd ec 90 8d bd 89 cb 1f 3e 18 c1 3d bd
       -0.04644973 -0.06912407 0.15604986 -0.046326727
000070 2d 49 e0 bd db 4e b7 bd 09 09 1c 3c d2 b7 d6 3d
       -0.10951457 -0.08950587 0.0095236385 0.1048428
000080 70 df ea bd 54 d4 02 be 3e 49 45 be 9e 45 fe bc
       -0.114683986 -0.12776309 -0.19266221 -0.031039055
000090 35 79 d0 bd 28 d2 1f 3e 00 dc e4 3d 96 a4 3d 3d
       -0.101793684 0.15607512 0.11174774 0.04629954
0000a0 81 f5 e2 3d 93 a6 57 3b 65 fe 0b 3e b5 fa 6b be
       0.110819824 0.0032905682 0.13671263 -0.23044856
0000b0 5f 5a 1c be e0 aa 6f bd 3f 64 c2 bd fb b4 bb 3d
       -0.15268849 -0.05851257 -0.09491777 0.09165379
0000c0 a7 4a 26 bd 73 32 12 3d 5d 9c 0a 3e bc ef fc 3d
       -0.040598538 0.035692643 0.1353621 0.12350413
0000d0 55 8e be 3d 9e ce e7 bc 53 76 09 3e 31 4a 68 3c
       0.093044914 -0.028296765 0.13424043 0.014177845
0000e0 95 b8 0e 3d 1b b1 29 bd d8 b8 d6 bd 19 c5 9b bd
       0.034844 -0.041428667 -0.10484475 -0.07605953
0000f0 00 e5 9e bb 49 1d 98 3c 0c e7 20 3c 32 7d 0a 3d
       -0.0048490763 0.018568652 0.009820711 0.0338108
000100 49 b4 01 3b 97 41 c1 bc 57 fb 01 be d8 c9 9f 3d
       0.0019791296 -0.023590846 -0.12693535 0.078021705
000110 f8 7c 0f 3e 43 45 df 3d 27 39 af bd d4 23 8b 3d
       0.14012516 0.109018825 -0.08555823 0.06793943
000120 a1 a8 d0 3c 1e 0b e9 3d 55 6d b3 bd 39 fc 5a 3e
       0.025471034 0.113790736 -0.08761088 0.21385278
000130 8e 50 15 3e 4f 00 6e bc c8 cf 46 be 72 36 f6 be
       0.1458151 -0.014526441 -0.194152 -0.48088413
000140 e3 7a 69 3d c7 d9 5c 3e 94 c9 0f 3e 41 a4 a7 be
       0.05700196 0.2156745 0.1404174 -0.32742503
000150 fd 6f 4c 3c c4 96 96 bd 74 54 3f 3d 9a 4d 8c bb
       0.012477872 -0.07352975 0.0467114 -0.0042817118
000160 c9 73 c2 3d 63 f4 6b be 30 36 31 3e 57 3d 3d 3e
       0.094947405 -0.23042445 0.17305827 0.1848043
000170 1b e4 c4 3c 93 f9 2d be 23 1a 5f bd 5e 2f ee bc
       0.02403455 -0.16989736 -0.054468285 -0.02907532
000180 06 b7 29 bc de 5e 16 3c 8a f3 ed 3d 36 f4 07 be
       -0.010358578 0.009177892 0.11618717 -0.13276753
000190 37 63 32 3e 1b 99 3c 3e 6d c3 26 bd d0 2f 41 be
       0.1742066 0.1841778 -0.040713716 -0.18865895
0001a0 1f 1f ea bd 14 ae 55 bc 8f b6 83 bd 40 81 a4 bd
       -0.11431717 -0.013041992 -0.06431305 -0.08032465
0001b0 ec 03 55 b9 2a 96 79 3c 46 f3 9d bb c7 c0 0e 3e
       -0.00020314724 0.015233556 -0.00482026 0.13940726
0001c0 78 fe 09 3e 97 c7 79 3d 9c f8 23 3c fd 18 90 be
       0.13475978 0.06098136 0.010008004 -0.28144065
0001d0 13 e4 99 bc 6d 77 8b 3c 3f a1 53 3d 1a bd 91 3d
       -0.018785512 0.01702472 0.051667448 0.071161464
0001e0 7a ee d8 3d 0e aa d5 bb 4f b1 50 3c c1 ef aa 3c
       0.10592361 -0.0065205162 0.012737586 0.020866277
0001f0 dd 67 71 ba 0d 90 d1 bc cf 21 20 3e e5 9f c1 be
       -0.0009208897 -0.025581384 0.15637897 -0.37817302
000200 07 ef 93 be f2 60 78 be 9a e0 8c bf 84 79 a3 3c
       -0.288933 -0.24255732 -1.1006043 0.019955404
000210 59 3f e1 3b 8a 60 17 3d 04 27 8b 3d 7f 1d 42 3d
       0.0068740067 0.0369573 0.06794551 0.04739141
000220 4a 1e 74 bc 80 2a c6 3d 50 b6 83 3d bc ab 9d 3d
       -0.0148998 0.09676075 0.06431258 0.07698771
000230 b2 24 68 3d 9d 69 d2 3c 43 3c e9 3d c3 f3 b8 3d
       0.05667562 0.025685126 0.11388447 0.09030869
000240 cf 13 b4 3d e4 c4 79 3b 95 7c 15 3c c8 2e 0b 39
       0.08792841 0.003811174 0.009123941 0.000132735
000250 c6 6a 2a bd eb d4 05 be 76 67 03 be 5b 21 5f be
       -0.041605733 -0.13069503 -0.12832436 -0.21790068
000260 71 88 7b bb a8 cf 63 3e 73 b3 2c 3d 0e f0 66 be
       -0.0038380886 0.22247183 0.042163324 -0.22552511
000270 8b 19 99 be 07 12 13 bf c5 1f 57 bd f0 bc 02 3b
       -0.299023 -0.5744938 -0.052520532 0.0019949041
000280 4e 82 0c 3c 2b 15 12 bd 3f 75 a7 bd 09 47 aa bd
       0.008575989 -0.03566472 -0.0817666 -0.0831433
000290 9b c6 06 bd b3 9c 21 bd eb 42 35 be 2e 88 52 3d
       -0.03290425 -0.03945608 -0.17701308 0.051399402
0002a0 a9 9a d1 bd 1f 2b 66 bd 9c 7d d4 3d aa ba 77 3c
       -0.10234577 -0.056193467 0.103755206 0.015120188
0002b0 88 6f 2e 3e 8c 48 43 3e 40 08 d3 bd 70 9c 99 bd
       0.17034733 0.19070643 -0.10304308 -0.07500541
0002c0 f6 18 cd bd 2f 60 8c be 3e dc e2 3d e0 79 a7 bc
       -0.100145265 -0.27417132 0.11077164 -0.020443857
0002d0 45 03 d0 bb 0d e1 fa 3c 68 20 ae 3e ea b8 59 bc
       -0.006348046 0.03062489 0.340091 -0.013288716
0002e0 57 72 31 3d 42 01 ce 3d 79 b4 27 bc f1 34 e2 bc
       0.043321934 0.10058834 -0.010235899 -0.027613135
0002f0 ae 30 29 bd 5d f9 1f 3e 7c 72 61 3e 2b 07 31 3e
       -0.04130619 0.15622468 0.22016329 0.1728789
000300 84 cc 55 be 42 55 bb bd ba 1e 49 bf d5 c7 d4 bc
       -0.20878798 -0.09147121 -0.7856251 -0.025974194
000310 0e 74 72 bd db 00 28 3d 8d b5 60 bd 78 af 16 3d
       -0.05919271 0.04101644 -0.05486064 0.036788434
000320 35 cd 44 3d 77 e1 c4 3d 98 4b c3 bd d3 d5 54 bc
       0.048047263 0.096133165 -0.09535903 -0.012990433
000330 92 f2 27 bd 95 7f 2a 3e bf 64 ef 3b 95 a0 e2 3d
       -0.041002817 0.16650231 0.007305711 0.11065785
000340 e7 45 cb 3d ee 0b e5 3d 66 a9 fa 3c d7 f2 20 bd
       0.09925442 0.11183916 0.030598354 -0.03929409
000350 3e f4 36 3d f1 72 06 3e ba e8 90 3d 60 c7 d7 3d
       0.04466652 0.13129784 0.07075639 0.10536075
000360 90 d0 da bd 10 b1 73 bd 28 f6 a5 3d 32 d7 ce bd
       -0.106843114 -0.05949503 0.08103591 -0.10099639
000370 36 24 cd bc ef e8 18 3e 4b db 3f bd 36 29 9e bd
       -0.02504168 0.14932607 -0.046839993 -0.07722704
000380 24 bd 12 bd 81 a6 bb 3d c2 dc b5 bc 4a 04 22 be
       -0.03582491 0.091626175 -0.022199992 -0.15821949
000390 35 e5 01 be 48 82 fa 3c 0c b8 c7 3d 6b 53 70 3e
       -0.12685092 0.030579701 0.09751901 0.23469321
0003a0 df a2 49 3d 93 ab a8 3d 7d 84 fd 3b 7a be 6e bd
       0.04922759 0.0823585 0.007736741 -0.05828712
0003b0 6a b8 f3 3d f7 b2 09 be 1b 3d da bd 0b e3 2d bd
       0.119004086 -0.13447176 -0.10656186 -0.042452853
0003c0 5a 79 a5 3d 90 cd 1f 3e ba 1e 02 be e4 52 39 bd
       0.080797866 0.1560576 -0.12707034 -0.045245066
0003d0 01 99 64 3d 85 47 cb bd 42 ff 3b 3e a0 6f 45 be
       0.05580998 -0.09925751 0.18359092 -0.19280863
0003e0 9a b4 68 bd 94 7f 73 bc 37 46 a6 bd 0c 09 b1 3d
       -0.05681286 -0.01486196 -0.08118861 0.08644304
0003f0 30 7f c4 bd c3 72 16 bc 71 a4 03 bc 5d 69 23 bc
       -0.095945716 -0.009182635 -0.008034811 -0.009973851

fc1.bias f4 [64]
000000 99 a4 0b 3e b9 88 43 3c d3 d0 d8 bd 94 25 1c bd
       0.13637008 0.011934453 -0.10586705 -0.038121775
000010 3e f4 32 3e 0d d8 9f 3c 53 f6 f8 bd 1d 28 e1 3d
       0.17475984 0.0195122 -0.121563576 0.10993979
000020 87 83 95 3d 18 9f 00 be b6 d7 59 3e 1e 53 4b 3e
       0.073004775 -0.1256069 0.21273693 0.19855925
000030 b3 2b 4a 3e 92 0d 0c 3e 46 91 e0 bc ba 60 31 bd
       0.19743232 0.13677052 -0.027413022 -0.043305136
000040 4d bb 17 3e 45 72 13 bc 11 34 c6 3d 73 82 51 be
       0.14817543 -0.008999412 0.096779 -0.20459919
000050 1e 4e e7 bd 53 d3 20 3e 68 45 49 3d ac b6 8b bd
       -0.112941965 0.15705614 0.049138457 -0.06821951
000060 a1 eb 10 be 7f 62 52 3e 5c 3b 45 3d 69 36 b9 bd
       -0.14152385 0.20545386 0.048152313 -0.09043581
000070 13 a9 14 3e 4c d3 ce 3d 54 9f e3 bd 81 26 22 be
       0.14517622 0.100988954 -0.11114374 -0.15835
000080 07 72 54 3e 2a 15 94 3c 3c 74 c4 bd 5a ef 86 3d
       0.20746623 0.018076498 -0.095924824 0.065886214
000090 a6 6b 5d 3d 5b 41 b2 3d 74 d5 46 bd 74 cb e1 bd
       0.05405774 0.08703872 -0.04854341 -0.11025134
0000a0 c6 cf 93 bd 83 26 c7 bc 7f 82 f6 bd 98 2b 77 3e
       -0.07217364 -0.024310356 -0.12036609 0.24137723
0000b0 1a b1 bb 3d 88 b4 ea bc 34 14 4a 3d 5f 18 34 be
       0.09164639 -0.028650537 0.049335673 -0.17587422
0000c0 31 70 ef bd db 51 e8 3c 76 c3 04 be bb 65 cd 3d
       -0.11691321 0.028359344 -0.12965187 0.10029169
0000d0 c2 0f 0a 3c 30 eb a0 bd e7 c6 3d be cc ed 55 3d
       0.0084266085 -0.078573585 -0.18532906 0.052228734
0000e0 71 79 d9 3d 9d 05 65 bb 77 29 a9 bd 82 b0 a6 bd
       0.10618866 -0.0034945973 -0.08259862 -0.08139135
0000f0 b9 bf ea 3d 94 6f 83 3d 8a fb a8 3d 96 0d 4b 3d
       0.114623494 0.06417766 0.08251102 0.049573503

fc2.weight f4 [64, 64]
000000 0a 91 72 bd 6a aa 27 3d 4b 91 46 3e be eb d3 3e
       -0.05922035 0.040934004 0.19391362 0.41390795
000010 5b f3 2b 3d e2 79 a5 bd b2 f0 49 bc 07 34 d2 bc
       0.04198013 -0.08079888 -0.012325453 -0.025659574
000020 08 08 65 3c 05 1a 62 3d 96 63 0a 3d 67 06 06 be
       0.013978966 0.055200595 0.03378638 -0.1308838
000030 83 e3 72 bd 70 18 2b 3e 5e 23 53 3d 7d 8d e0 bc
       -0.059299003 0.16708541 0.0515474 -0.027411217
000040 22 6f 5a bd f2 08 fb bd 6a e7 f4 3c c0 2f 20 3d
       -0.05332864 -0.122575656 0.029895503 0.039108038
000050 9f 76 1d bd 05 b5 ac bd 53 d5 93 3d 71 57 90 bd
       -0.038443204 -0.08432964 0.07218423 -0.07047928
000060 35 44 9c bd a1 4d 35 be a9 5a e3 3d 26 e5 8d 3e
       -0.07630197 -0.17705394 0.111012764 0.2771389
000070 d5 04 3d 3d 97 a3 95 3d e5 c7 0f 3d f3 9c 9e bc
       0.046147186 0.07306593 0.035102744 -0.019361949
000080 08 d1 2a 3e 11 54 0a bd 95 9b 23 3d 85 f4 ca 3b
       0.16681302 -0.03377158 0.039943296 0.0061937
000090 1e 59 bf bc 7f 68 69 3d 23 b5 62 3e 3a 80 14 bd
       -0.023357924 0.05698442 0.2213941 -0.0362551
0000a0 f3 ad ce bc 53 40 1f 3d 9f 81 6f 3d 96 16 9a bb
       -0.02522943 0.038879704 0.058473226 -0.0047023995
0000b0 f4 70 d8 3d 17 2b 52 bd 26 5e 98 bd c6 0e 81 3d
       0.10568419 -0.051310625 -0.074398324 0.06301646
0000c0 a2 23 1e bc 49 af c7 bd a2 6b dd 3c a0 7f 8f bc
       -0.00965205 -0.0975023 0.027028862 -0.017516911
0000d0 a8 d3 ad bd 1a fa 17 be 7c 7a db bd 37 64 e4 3c
       -0.08487636 -0.148415 -0.107167214 0.027879817
0000e0 42 57 69 bd 8f 47 52 3d 87 ba 82 be 77 e3 5f 3d
       -0.05696798 0.051337775 -0.25532934 0.054660287
0000f0 e6 d3 fb 3d 75 1e e2 3d bb 34 bb bd ce 16 84 3d
       0.12296276 0.110409655 -0.09140917 0.06449662
000100 7f 9c 1a 3e 1c a5 e4 3d cd 8b 74 be 08 60 0f be
       0.15098761 0.111643046 -0.23881455 -0.14001477
000110 db 80 01 3e 7f 88 0a 3e 2d a7 a7 bd 30 ed ef 3c
       0.1264681 0.13528632 -0.08186183 0.029287905
000120 eb 6a 68 bd 3f ac 19 be 82 40 a3 bc e5 39 45 3e
       -0.05674259 -0.15007113 -0.01992822 0.19260366
000130 0c bf 03 be 91 34 15 3e ab 63 32 bd 27 a4 ed 3d
       -0.12865847 0.14570834 -0.043552082 0.11603575
000140 7c d7 f3 3d 58 d6 5d 3d 17 3b 9f bd ec c2 c4 bb
       0.11906335 0.054159492 -0.07774942 -0.006004682
000150 d4 bb 8d 3d 6b c4 a4 bd b3 b1 86 3e ee 83 9d bd
       0.06920591 -0.08045276 0.2630745 -0.07691179
000160 eb e9 4d 3d cd 1a 65 3d 6f 50 87 be fd 50 b2 bd
       0.05027191 0.055933762 -0.26428553 -0.087068535
000170 ee ce d6 3c 8d ec ef bd 31 44 da 3d 4f 37 e1 bd
       0.026221719 -0.1171504 0.10657538 -0.109968774
000180 a9 56 c6 bd 56 5e 08 3c 6c 2e 02 bd 8a eb 55 bd
       -0.09684498 0.008323273 -0.031782553 -0.05222658
000190 ae 4a 02 bc cb f4 3e 3d da c0 83 be b0 af 1f be
       -0.007952375 0.04662017 -0.25733072 -0.15594363
0001a0 7f 72 4e be b9 bb 07 be cc cc 08 bd 35 c5 d5 bd
       -0.20160864 -0.13255204 -0.033398435 -0.10438005
0001b0 98 c0 0b bd b5 6c 04 bd f8 26 fd bd f7 58 7d bd
       -0.03411922 -0.032330234 -0.12360948 -0.06185242
0001c0 a7 23 81 bd fd eb 0e 3d 4a 3c bb bd e5 ed fc 3d
       -0.06305628 0.034893025 -0.091423586 0.12350062
0001d0 13 2b ca bd 00 2e 26 3d 33 5c 86 bc d2 31 dd bb
       -0.09871497 0.040571213 -0.016401386 -0.006750324
0001e0 1c d2 39 bd 20 c7 cf 3c 2e f6 55 3e 81 01 cb 3d
       -0.04536639 0.025363505 0.20894691 0.09912396
0001f0 a9 c7 2a be 59 35 89 3d 04 99 db bd b0 59 85 be
       -0.16677727 0.066996284 -0.10722545 -0.2604499
000200 4c 95 f8 bd 38 09 91 bd 99 d7 23 bd bb b5 44 3e
       -0.12137851 -0.070818365 -0.04000053 0.1920995
000210 cb 92 81 3d c1 aa 87 3d ea da b4 bd ab a0 0b bc
       0.06326827 0.066243656 -0.08830817 -0.008522193
000220 9b 06 f8 3d 4d d7 43 3c 38 7f 94 3d bc 7e a5 3d
       0.12110635 0.011953187 0.072508276 0.08080813
000230 89 d2 53 3d 7f 92 02 3e 6f 6f c2 bc b7 b1 da bc
       0.051714454 0.12751196 -0.023734776 -0.02669607
000240 c5 9f b8 bd e5 8c ca 3d 2a 70 9e 3d 66 47 0f bd
       -0.090148486 0.09890155 0.07736237 -0.0349802
000250 23 f9 e9 bd 1b 9c 09 3e 03 ae 92 3d 81 f1 09 3d
       -0.11424472 0.13438456 0.07162096 0.03367758
000260 f0 c0 c4 b9 b1 5f fe 3d 7f 79 12 3e 74 df 8b 3e
       -0.00037527783 0.124205954 0.1430416 0.2731892
000270 9b 9e b0 3c 38 ae c0 3e 80 bd 29 3e 7c 2a 17 bd
       0.021560004 0.37632918 0.16576195 -0.03690575
000280 ec a8 06 be 1a 7c d2 bd 0c e3 2e be bf ad 4b 3d
       -0.13150376 -0.10277577 -0.17078799 0.049726244
000290 e4 6c 04 3e c2 02 35 3e 46 99 3a 3e 02 e4 4b bd
       0.12932163 0.17676833 0.18222532 -0.049777992
0002a0 ca fd ae 3e a5 5e a7 be 6c 66 d7 bc 9b f0 23 bd
       0.34178 -0.32689396 -0.026293956 -0.04002438
0002b0 ec 07 8c bc 49 34 2e 3d 5a 8e 7e 3d 65 45 94 bd
       -0.017093621 0.04253033 0.062147476 -0.072397985
0002c0 fe 47 93 3c da 27 f2 bd 58 e3 98 bd 54 b5 5e 3d
       0.017978664 -0.11824007 -0.074652374 0.054372147
0002d0 0e e2 ce bd d5 66 64 bd 8f 7e 6d be b9 4b 03 bd
       -0.1010171 -0.05576213 -0.2319281 -0.032054637
0002e0 96 20 77 3c c4 51 c8 bd 25 bc f4 3d 55 e7 d8 3d
       0.015083453 -0.097812206 0.11949948 0.10590998
0002f0 95 f2 18 bc 8b 43 09 3e d2 39 2c bc c4 7b 70 3d
       -0.00933518 0.13404672 -0.010511832 0.058711782
000300 6e 02 31 bd 77 26 cd bd ef ae 27 3e 22 a8 99 bd
       -0.043215208 -0.10017102 0.16375326 -0.07502772
000310 e1 9a f4 bc 9f 7d 2c 3b 57 bb 8c bc a8 a1 a4 bc
       -0.029859008 0.0026319993 -0.017179174 -0.020096615
000320 e6 aa 03 be 81 a6 b6 bb ea 5a f5 3c 8e a5 85 3d
       -0.12858161 -0.005574048 0.029950578 0.06525718
000330 d8 fa 59 bd 03 37 c5 3d 10 fb 1b 3c 86 a5 dc bd
       -0.05321774 0.09629633 0.009520307 -0.107737586
000340 b7 6a f5 ba 2d cc 1b 3c fa ab 9a 3c cf 96 8b bd
       -0.001872382 0.0095091285 0.018880833 -0.06815874
000350 c6 fd 25 3d 81 02 f0 3d f0 8a 0d bc 36 7b 58 3d
       0.04052522 0.117192276 -0.008639082 0.052851878
000360 07 87 c3 3d d2 0c 6a bd d9 7a 98 3d 72 90 5d be
       0.09547239 -0.057141133 0.07445306 -0.21637133
000370 a9 b5 7c 3e 1b d2 5f be eb 5f 3e 3d 2b 25 86 bc
       0.24678673 -0.21857493 0.046478193 -0.016375145
000380 c2 57 0f bc 3e 1e 8a bd 8e f8 a5 3d 98 87 01 3e
       -0.00874895 -0.067440495 0.08104049 0.12649381
000390 9d 13 e5 bd ad df a0 3d 83 57 e9 3d 2b 83 62 3c
       -0.111853816 0.07855163 0.11393645 0.013825218
0003a0 6f 66 9e bd 4c 93 a9 3c 7d 14 33 bd 4b a0 9a bd
       -0.077343814 0.02070012 -0.04372071 -0.07550105
0003b0 ae 38 0c bc de b6 6f 3c b6 c1 d7 3d a2 80 04 bd
       -0.008558435 0.014631001 0.10534994 -0.032349236
0003c0 38 5a b3 bc 79 2c 1c 3d 54 ab c7 bb cf 7f 4d bd
       -0.021893606 0.03812835 -0.006093422 -0.050170716
0003d0 fa a0 12 3e 9d e7 46 bd 44 cc 1d 3d 1e 9f 05 3e
       0.1431922 -0.048560727 0.03852488 0.1304898
0003e0 e3 33 aa bd a9 04 0c be a7 4a b2 bd 88 66 fb 3d
       -0.08310678 -0.13673653 -0.08705645 0.12275416
0003f0 f0 99 11 be f9 ff 81 3c 46 8d 1c be 7b f4 cd 3d
       -0.14218879 0.015869128 -0.15288267 0.100563966

fc2.bias f4 [64]
000000 d5 df 3e 3d 16 a6 f9 bc 66 40 08 3e 6a b6 2d 3d
       0.04660018 -0.030474704 0.13305816 0.04241029
000010 5a 26 3f 3e 4a 02 09 be 9a dc 7c bd e3 ff 8a 3d
       0.18666974 -0.1337978 -0.06173382 0.06787088
000020 4f 92 c7 3d 47 79 45 3e e1 d6 6c bd 6b fc 43 3e
       0.09744703 0.19284545 -0.057822112 0.19139259
000030 b5 a5 e1 3d d8 1c 97 bd f6 c7 d4 bc 09 b3 f9 3c
       0.11017934 -0.073785484 -0.025974255 0.030480878
000040 56 23 88 3c 3c f8 99 3b b2 bc 54 bd ab b3 c5 3d
       0.016618412 0.0046987813 -0.051937766 0.096534096
000050 10 24 1a 3e 9f b0 70 3e ba 78 d3 bd 2a d2 06 bd
       0.15052819 0.23504876 -0.10325761 -0.03291527
000060 3f f8 85 bd fa e7 d3 bd fa 45 8a 3d a7 c4 fc bc
       -0.0654149 -0.103469804 0.06751628 -0.03085549
000070 35 08 d2 bc 3b ff c1 3d ee e9 ac 3d 36 11 3d bd
       -0.025638679 0.094725095 0.08443056 -0.04615899
000080 9a 5d f7 bc 89 18 3e 3d 1f 16 28 3d b6 35 8a bd
       -0.030196 0.046410117 0.04103672 -0.06748526
000090 82 77 e2 bd 11 80 0b be 68 a5 4a 3e 78 a5 a5 bb
       -0.110579506 -0.13623072 0.1978966 -0.005055126
0000a0 92 a4 41 bd e3 73 7b 3e fe eb 05 3e a9 1c 28 bd
       -0.047276087 0.24555926 0.13078305 -0.041042957
0000b0 67 0e 21 3d fc 75 8c bd 12 1d 2d 3d cd 86 86 bd
       0.039320376 -0.06858441 0.04226405 -0.0656868
0000c0 be 9e e5 3d 12 7d a2 bd 5c ca 54 bd 1f 1d 4f 3e
       0.11211918 -0.079340115 -0.051950797 0.20225953
0000d0 ef c0 42 bd 57 ac 34 bd 29 9c fa 3d 4a d5 a7 bd
       -0.047547277 -0.04410967 0.122368164 -0.081949785
0000e0 73 89 16 be 41 b4 0e be d3 0d ae 3c 2a a0 61 bd
       -0.1470087 -0.13935949 0.021246826 -0.055084385
0000f0 fb 85 79 3d cb d2 e2 3d 11 8e a2 3d 02 3b b3 bd
       0.06091879 0.11075362 0.07937253 -0.08751489

actions.weight f4 [4, 64]
000000 82 f4 b8 3d 67 79 e0 3e df 4a 32 3e 5c ea ca bd
       0.09031011 0.43842623 0.17411374 -0.09907982
000010 29 96 fd 3d d6 d5 7c be e7 a1 44 3e ab cc a0 bd
       0.123821564 -0.24690947 0.19202386 -0.07851537
000020 62 19 e1 3d 5e 77 46 3d d2 b5 94 bd 5a 0c 9c 3e
       0.109911695 0.04845368 -0.07261242 0.30478173
000030 8a 7c 48 3d a3 33 87 bd cd b2 11 3b db fc 57 bd
       0.048946895 -0.06601646 0.0022231818 -0.052731376
000040 1b b9 08 3e 38 41 72 3e bf e7 bf 3d 11 af 06 3e
       0.13351862 0.23657691 0.09370374 0.1315272
000050 fa 4c 9f 3d 3b 7b c4 3d fa dd fe 3c a4 39 6c bc
       0.07778354 0.09593817 0.031111706 -0.0144180395
000060 aa 52 a1 bd 78 05 a5 bd 94 73 10 be d1 cc 68 be
       -0.07877095 -0.08057684 -0.1410659 -0.22734381
000070 55 c6 43 3e 45 3f 22 3e 5c 70 db bd 4a ba f6 3d
       0.19118626 0.15844448 -0.1071479 0.120472506
000080 79 c2 b6 3d 8b 8a b6 3e 90 47 4a 3d 80 71 d1 3a
       0.089238115 0.35652575 0.049384654 0.001597926
000090 0b 1b b6 3c ff ed 20 be 3c f7 dd 3d a8 ef ad 3e
       0.022229692 -0.15715788 0.10838172 0.33971906
0000a0 ae 0a e1 3d 1f 99 86 3d 0f 71 04 3e be d3 0c 3e
       0.10988365 0.06572174 0.12933753 0.13752648
0000b0 e9 1a 34 3e 99 af 02 bd c4 90 0c 3e cc 9c ca 3d
       0.1758839 -0.031905744 0.13727099 0.09893188
0000c0 1c 6f c0 3d d9 2f 72 3e b6 47 8f 3d ae 06 41 3e
       0.093961924 0.23651065 0.069961 0.18850204
0000d0 52 b7 79 3e 1c bf 4b be c9 b5 b7 3d db 33 3b 3d
       0.24386337 -0.19897121 0.0897022 0.04570375
0000e0 f4 ff 57 be b1 4d bf bc 14 61 85 3e 94 32 f7 3c
       -0.21093732 -0.023352476 0.26050627 0.030175485
0000f0 59 27 9f be ff eb 0e 3e 96 e3 f3 3c f5 15 05 3e
       -0.31084707 0.13957213 0.029771607 0.12996657
000100 69 83 5f 3e e7 de 89 3e 76 39 57 3e dc 46 a0 bd
       0.21827473 0.26927873 0.21018013 -0.07826015
000110 03 ea 5e 3d 4e 42 48 be a6 4c d3 3d 8d cb be bc
       0.05442239 -0.19556543 0.10317354 -0.02329042
000120 ba cd 8c bd a8 1b 6e 3d 33 46 c9 3d db 65 3c 3e
       -0.06875177 0.058131844 0.098278426 0.1839823
000130 78 75 83 bd bd 99 48 bd 3b e8 4e 3d d1 81 05 3d
       -0.0641889 -0.04897474 0.05051444 0.032594506
000140 3f 60 35 3e cd 12 35 3e 4f 57 f1 bd 18 b3 c0 3d
       0.17712496 0.17682953 -0.11784231 0.094091594
000150 23 62 00 3e 68 10 39 3e da ee 49 bc 3a 2b d4 3d
       0.12537436 0.18072665 -0.012325013 0.10359807
000160 0b 31 1e bd a1 3b 77 bd c0 b9 71 3d 77 76 91 bd
       -0.03862099 -0.0603596 0.059015036 -0.071026735
000170 2b d9 c3 3d 32 e5 41 3e 45 fe b7 3d f9 a2 05 3e
       0.09562906 0.18935087 0.08984045 0.1305045
000180 42 da 83 3c 35 3a 71 3e 34 1b 37 3e af 21 51 be
       0.016095284 0.2355736 0.17881471 -0.20423006
000190 50 79 0d 3d ae da 15 be 50 4f 31 3e e2 40 81 3e
       0.03453952 -0.14634201 0.17315412 0.25244814
0001a0 1e 59 6d 3e 56 0c ed 3d 4a 32 b4 bc 89 c5 9c 3d
       0.23178527 0.115746185 -0.021996636 0.07654864
0001b0 83 2d 5d 3e e7 8a b9 bd 84 65 df 3d 03 3f e9 3d
       0.21599393 -0.09059697 0.109080344 0.11388972
0001c0 f5 09 59 3e 7a 6c 11 3e 66 d7 f8 3d 29 cf c0 3d
       0.21195205 0.14201537 0.12150459 0.09414513
0001d0 ac 46 42 3e c4 b3 85 bd bf 65 b4 3d 41 83 b0 3d
       0.18972272 -0.06528428 0.08808469 0.08618785
0001e0 d4 ae 22 be b5 6d 53 bd e0 88 00 3e 52 9a 22 be
       -0.15887004 -0.051618297 0.12552214 -0.15879181
0001f0 38 bf a1 bd f6 86 6a bd 5c 47 06 be 7d 3a a8 bc
       -0.078978 -0.057257615 -0.13113159 -0.020535702
000200 16 2c 6c 3c 57 69 50 3e 13 cb 6d 3e 9b 68 ff bc
       0.014414808 0.20352684 0.23221998 -0.03117781
000210 92 62 31 3e e6 36 a3 bc 1d aa 03 3e c4 a5 72 3c
       0.17322758 -0.019923639 0.12857862 0.014810029
000220 62 dd 6b 3c 1f 51 94 3d a7 68 a8 bd 48 57 2c 3e
       0.0143960435 0.07242035 -0.08223086 0.1683017
000230 00 a5 3c 3e 3b 27 34 be 90 c1 14 be ab 32 29 3e
       0.18422318 -0.1759309 -0.14526963 0.16523235
000240 88 a8 94 be fe 06 90 3d 3a 5a f4 bd a4 b6 62 3d
       -0.2903483 0.07032584 -0.11931272 0.05534996
000250 54 ee 00 3d 9a 55 3e 3e 78 9c eb bd 91 0b 11 3e
       0.031477287 0.18587342 -0.115044534 0.14164568
000260 16 23 82 3d d2 0e 75 bd e1 3e 34 3e 56 c9 fc bd
       0.06354348 -0.059828587 0.17602111 -0.12343089
000270 26 b7 bb 3c fb c2 48 3e 83 12 cc 3c e4 59 9c bb
       0.02291448 0.19605629 0.02491117 -0.004771458
000280 68 03 f9 bb d9 33 59 3e ca 36 4f 3e 3d af 4b 3d
       -0.007599283 0.21211185 0.20235744 0.049727667
000290 4a e6 09 3d 96 fe f8 bd cc be d4 3d 82 2b 98 3d
       0.033666886 -0.121579334 0.10387954 0.074301735
0002a0 7c a4 90 3e 57 a1 c8 3d 0c 5c fb 3d 07 ec 8d 3d
       0.28250492 0.09796398 0.12273416 0.06929784
0002b0 c8 af 16 3e 6a f5 a4 bd c4 4e ee 3d bc 59 ba 3e
       0.14715493 -0.080546215 0.11636117 0.36396587
0002c0 6f 97 aa 3e 0a 55 89 3d 0f 2e d5 bd f0 89 45 3e
       0.3331866 0.06705673 -0.104091756 0.192909
0002d0 55 3c c6 3d b4 6b 07 3d e5 c3 b0 3d 63 06 90 3e
       0.09679476 0.033061698 0.08631114 0.28129873
0002e0 a8 83 35 be f5 27 aa bd f5 1f af 3d 67 f6 9d bd
       -0.17726004 -0.083084024 0.08551017 -0.07713013
0002f0 7e d9 4f be 8c 1e b5 3d c4 d3 ba bd 9a f2 49 be
       -0.2029781 0.08843717 -0.09122422 -0.19721451
000300 45 3e 40 3e 4f c3 35 3e 66 9a af 3d cb b6 d1 be
       0.18773754 0.17750286 0.08574371 -0.40959772
000310 94 d6 cc bb 85 54 ca 3c 22 a9 ea bd 8f 7a 10 3d
       -0.0062511656 0.024698505 -0.11458041 0.03527313
000320 a8 2e f8 3d 54 21 28 3e bd 79 16 3e 6f e7 f8 3d
       0.12118274 0.16418964 0.14694877 0.121535175
000330 27 36 03 3e 78 b6 00 bd c9 ac 36 3e d5 4a 6e bd
       0.12813626 -0.031424016 0.1783935 -0.058176834
000340 1b ff f9 3e 44 f9 fc 3d eb 32 ab 3d 87 f3 15 3e
       0.48827443 0.12352231 0.08359321 0.1464368
000350 10 78 74 3c 04 b3 26 3e fa b7 d8 bc e0 ac 12 3e
       0.014921203 0.16279227 -0.026454914 0.14323759
000360 5b fc a9 3d 84 73 ca bd a2 75 6f 3c e5 a9 be 3c
       0.08300086 -0.09885314 0.014615448 0.023274371
000370 db 60 94 3e ed 7f fb bd 49 cb d1 bd 3d b0 aa 3d
       0.28980145 -0.12280259 -0.10243852 0.08334396
000380 1b 87 9f bd c5 96 b8 3e e1 85 af bc af ae 80 bd
       -0.07789441 0.36052528 -0.021426143 -0.06283318
000390 92 20 f1 bd d1 95 cd bd e5 1a 49 3e 31 e0 19 3e
       -0.117737904 -0.10038341 0.19639166 0.15026928
0003a0 18 64 e5 3d 6d 06 21 3e 7d 77 29 3e ae 56 03 be
       0.11200732 0.15725107 0.16549487 -0.12826034
0003b0 5c 95 b9 3e a9 b6 42 be ee 62 b8 3d 38 8d 86 3c
       0.36246765 -0.19014992 0.09003244 0.01642476
0003c0 57 36 b5 3d 7f c5 86 bc da df 88 3e 2a ac 35 3e
       0.08848255 -0.016451595 0.26733285 0.17741457
0003d0 03 b5 87 3d a9 60 3c bc e9 ae bd 3d a8 f7 7a 3e
       0.06626322 -0.011497655 0.09261877 0.24508536
0003e0 a4 b8 13 be 26 5c 26 be d6 e1 00 3d f7 04 05 be
       -0.14425904 -0.1624609 0.031465374 -0.12990175
0003f0 29 b2 fb bd 1f fa c8 bc 30 08 f2 bc 24 68 5e 3d
       -0.12289841 -0.02453333 -0.02954492 0.054298535

actions.bias f4 [4]
000000 23 54 e7 3d e5 59 10 3e fc 54 5a bc cb f4 ee bb
       0.11295345 0.14096792 -0.013325926 -0.007292365
